hw08/last_model_cnn.pt (torch, 207399 bytes, 36 tensors)

weight f4 [12, 3, 4, 4]
000000 d0 1a 57 be 75 0b 4e be 5b 1b 98 be 3f 04 e9 3c
       -0.21006322 -0.20121558 -0.2970837 0.028444408
000010 f5 49 4d bd d1 5f fa 3e 36 f0 f4 bc 49 71 c8 bd
       -0.05011936 0.48901227 -0.029899698 -0.097872324
000020 80 0d 14 bb 5a c3 08 3f 91 5a 48 3e 25 2a 91 be
       -0.0022591054 0.5342308 0.19565798 -0.28352466
000030 da fe 83 be 79 94 0a 3d 9e 7b db 3c 42 5f ba bd
       -0.25780374 0.033833 0.026792344 -0.091002
000040 ad 1d dc be f7 92 ef bd b7 e9 bc be 61 5f eb bd
       -0.4299139 -0.11697953 -0.3689706 -0.114928015
000050 54 ec 4e bd 17 84 0c 3f 09 bf 44 3e f0 12 7d be
       -0.05051835 0.54889053 0.19213499 -0.24714255
000060 19 02 ab 3d 4c 85 55 3f 11 86 b7 3e 42 ca 6e be
       0.083500095 0.8340652 0.35844472 -0.23319343
000070 6d 49 e0 bd 70 a8 53 3d 6d 52 76 be 65 73 80 be
       -0.10951505 0.051674306 -0.2405488 -0.2508804
000080 d2 8c 74 3e 8d 82 18 3f 60 34 8a 3e 66 bb db 3c
       0.23881844 0.59574205 0.26993084 0.026822757
000090 ca 18 2f 3f eb 60 2a 3f b2 7e 6a 3f 3b d4 74 3e
       0.683972 0.66554135 0.9159957 0.23909084
0000a0 0e 8f 76 3f d7 f6 a2 3f 89 c9 91 3f 03 f0 3e 3e
       0.96312034 1.273158 1.1389629 0.18646245
0000b0 c9 0d 41 3e c2 04 1d 3f fe 91 c2 3e 79 5e d6 3d
       0.18852915 0.61335385 0.38002008 0.10467238
0000c0 58 a8 97 3d 1c 3c ca 3d a2 85 b7 bc f2 1a 1c 3b
       0.07405156 0.09874746 -0.022402588 0.0023819772
0000d0 0c f9 9f 3e 94 b1 5e 3f 9c 2b dd 3e dd db e6 3c
       0.31244695 0.8698971 0.43197334 0.02818101
0000e0 72 fe c1 be 38 28 57 be 78 52 fe bd ef b3 36 be
       -0.3788944 -0.21011436 -0.124180734 -0.17842077
0000f0 86 c6 99 3d d1 f0 21 be fc 02 a7 bd d9 58 a6 bd
       0.075085685 -0.1581452 -0.08154866 -0.08122415
000100 b2 d6 06 bf 19 0a c4 3e 58 96 f7 3e 39 34 21 be
       -0.5267135 0.38288954 0.4835689 -0.15742578
000110 27 65 f6 3e 21 7e 41 40 0b a8 b0 3f 6e a6 9f 3d
       0.48124048 3.0233233 1.3801283 0.07795416
000120 3a 6f 9a be d5 29 80 3f b7 0c 82 3f 71 a8 52 3e
       -0.30162984 1.0012766 1.016013 0.20572068
000130 2b f0 48 be c2 4a 57 bd 2d 55 09 3e 7d 3e 2a be
       -0.19622867 -0.05256153 0.13411398 -0.166254
000140 e4 b4 71 be bd e2 59 bd cb b3 01 bd 05 eb 7b be
       -0.2360416 -0.05319475 -0.031665605 -0.24601372
000150 f6 c4 16 3e 4e fc 1f 3f e4 d3 06 3e 66 80 28 bd
       0.14723572 0.6249436 0.13166767 -0.041138075
000160 e3 0d 5a be a7 47 7d 3d e8 f9 79 bd be 8c 95 bc
       -0.2129436 0.06183591 -0.061029345 -0.018255588
000170 90 d8 1d be 46 8e 18 3e 21 8e 2e 3e f4 2e 2d be
       -0.15414643 0.14898023 0.17046405 -0.16912442
000180 7b 61 85 3e 69 07 e0 3e 55 78 82 3e 17 a3 3b bd
       0.26050934 0.43755654 0.2548243 -0.04580983
000190 87 d5 80 3e 99 00 9c 3f 82 ff d3 3f 69 aa 89 3e
       0.25162908 1.2187682 1.656235 0.26887825
0001a0 14 68 89 3e 1c 7f b2 3f 50 f1 7e 3f 4f 81 d3 3d
       0.26837218 1.3945041 0.99586964 0.10327398
0001b0 85 34 53 3e 02 e5 42 3e f8 e3 8f 3e 30 5d bc 3c
       0.20625503 0.19032672 0.28103614 0.022993654
0001c0 31 4e b7 bd b4 3d 00 be 29 90 9f 3c 04 c2 bd be
       -0.08950461 -0.12523538 0.01947792 -0.37062085
0001d0 88 96 f2 bc d9 d9 1e 3f df b8 3f 3f bc e2 15 bc
       -0.029612795 0.6205116 0.74891466 -0.009148296
0001e0 89 74 09 be f0 e3 34 3f 1a 89 57 3f a1 04 22 be
       -0.13423361 0.70660305 0.84193575 -0.15822078
0001f0 5c 4c b4 be 34 9c 84 be 37 c4 31 be 60 fd a8 be
       -0.35214508 -0.25900424 -0.17360006 -0.3300581
000200 eb 8a 62 be 2e 24 23 be 59 6a de bd 62 60 88 be
       -0.22123305 -0.1593177 -0.10860128 -0.26636034
000210 7e 54 d7 bc cc 69 9b 3e b8 ba 26 3f 8a d2 4d 3d
       -0.026285406 0.30354154 0.6512866 0.050249614
000220 c2 73 3f be 73 1f 8e 3e 54 5c d0 3e af fc da bd
       -0.18696502 0.2775837 0.4069544 -0.10692727
000230 6e 39 6c be 3a 04 21 be 8d 57 93 3c f9 9c 30 be
       -0.23068783 -0.15724269 0.017986083 -0.1724738
000240 51 28 99 3e 08 2b e1 be ee 27 15 be 26 9b 84 3d
       0.2991357 -0.43978143 -0.14566013 0.06474905
000250 e5 02 f5 be 54 61 8f be a2 e2 99 be 8a fe d0 be
       -0.4785377 -0.28003943 -0.3005572 -0.40819198
000260 48 9e ca bd 8b b8 c8 be 73 ac bc be 25 3d 47 3e
       -0.09893471 -0.39203295 -0.36850318 0.19456919
000270 7c 3b 8e 3e 78 23 e3 be e3 4a 5a 3d 83 7d 95 bd
       0.27779758 -0.44362998 0.053294074 -0.0729933
000280 dc 84 16 3e 59 1d b5 be 20 6f 9b bc ee 8e b4 3d
       0.1469912 -0.35373953 -0.018973887 0.08816324
000290 a8 d7 00 bf d1 e8 34 be d1 68 ad be e1 00 77 be
       -0.50329065 -0.17666937 -0.3386903 -0.24121429
0002a0 65 8e 99 3b 57 64 a6 be 31 3e ac be b5 0e 04 3e
       0.004686164 -0.32498428 -0.33641198 0.12896235
0002b0 8b ed ac 3d df a5 54 be ef bc 71 3c b9 f1 b3 bd
       0.08443745 -0.207664 0.014754518 -0.08786339
0002c0 41 d9 84 3e 2d 5c 83 be 83 f4 2b bd 67 c4 a5 3e
       0.25947002 -0.25656262 -0.04198123 0.32376406
0002d0 5d 79 90 be a8 c6 39 bf 40 07 20 bf 17 ce c9 bc
       -0.28217593 -0.7256875 -0.6251106 -0.024634404
0002e0 6b 06 4b 3d 59 10 0e bf 20 1d a8 be 56 06 01 3e
       0.049566668 -0.55493695 -0.3283472 0.12600073
0002f0 f8 e0 16 3e 7d ea a3 3d f4 2d 02 3e 56 26 9d 3e
       0.14734256 0.080037095 0.12712842 0.3069331
000300 cf b8 35 3e bb 97 72 be 23 9f 2d 3d 2a bb 3a 3e
       0.1774628 -0.23690693 0.042388093 0.1823546
000310 be 18 da bd f2 eb 4c bf c9 b4 a1 be 93 a9 f1 bd
       -0.106492504 -0.80047524 -0.3158324 -0.11799922
000320 8f de 2d 3e b9 5a 84 be 50 ba 26 3d e4 2b 16 3e
       0.1697943 -0.25850466 0.040705025 0.1466518
000330 d7 57 57 3e 23 52 e3 3d 55 39 dc 3d ea c3 57 3e
       0.21029602 0.11099651 0.10753123 0.21070829
000340 3e 66 33 3c 14 e4 a2 be 3f b8 c7 be 7f 5a e7 bd
       0.010949669 -0.31814635 -0.39007756 -0.11296558
000350 ab 1e 00 bf 03 cb 93 bf e7 67 63 bf 09 7c 09 be
       -0.50046796 -1.1546329 -0.8883042 -0.13426222
000360 9d 4a 84 3b c6 57 19 bf 71 8c 33 bf d7 52 22 be
       0.004037215 -0.59899557 -0.7013617 -0.15851913
000370 e4 79 c3 bd 3a 41 38 bd 2d e9 13 be 57 4b d9 bd
       -0.09544733 -0.04498408 -0.14444418 -0.10610073
000380 8e 35 b5 3e 7b 5c 57 3c cd b3 60 3d a6 f1 9a 3e
       0.3539242 0.013144608 0.05485897 0.30262488
000390 ca d9 8f be b7 8e 55 bf ed bf 04 bf a3 a0 70 3d
       -0.28095847 -0.8342089 -0.51855356 0.058746945
0003a0 cd 6a d9 3e ca bb 16 be fb 39 03 3d b6 e4 89 3e
       0.42464295 -0.14720073 0.032037716 0.26932305
0003b0 03 fe 07 3e 6e 45 e4 3b aa 7e f8 3c 33 12 cf 3c
       0.13280492 0.0069662845 0.030333836 0.025277233
0003c0 8a 5c e6 3e 04 e7 c0 3b b9 0d fc 3d 94 12 82 3e
       0.44992477 0.005886914 0.12307305 0.254048
0003d0 54 b9 b1 bd dd 9f 71 be 15 7b 6e 3c d0 ea ca bd
       -0.08677927 -0.23596139 0.014555712 -0.09908068
0003e0 0f 03 80 be 17 e1 87 be 53 f7 92 bd 13 4c f0 3c
       -0.25002334 -0.26538917 -0.071760796 0.02933315
0003f0 b0 73 1a 3f 1f e6 63 be 60 99 96 be b5 39 86 3e
       0.60332775 -0.22255753 -0.2941389 0.26215902

bias f4 [12]
000000 14 f4 e5 3d d9 e5 29 bd 38 c7 03 3e d7 89 08 bd
       0.11228195 -0.041478965 0.12868965 -0.03333458
000010 3f 2f 07 3e 7e 9b 0a 3d 29 05 77 bd 0d 9c ab bd
       0.13201617 0.033839695 -0.060307655 -0.08379374
000020 20 99 bd 3b 6d 80 16 3d a6 02 9d bd a7 09 50 bd
       0.005786076 0.03674357 -0.07666521 -0.050790455

weight f4 [12]
000000 b8 11 82 3f 8a 97 34 3f 81 7e 7c 3f 4b d3 54 3f
       1.0161657 0.7054373 0.9863053 0.8313491
000010 b3 77 57 3f 6e a0 11 3f 0f 9f 4f 3e f6 28 4b 3f
       0.8416702 0.5688542 0.2027552 0.79359376
000020 86 72 25 3f 20 40 af 3e dc 31 90 3e 21 1b 30 3f
       0.64627874 0.3422861 0.2816304 0.68791395

bias f4 [12]
000000 96 30 68 bf 26 d9 f0 3e 56 1a b6 bf cb 87 81 bf
       -0.90699136 0.4704067 -1.4226787 -1.0119566
000010 f6 32 0d bf 0a 46 03 3f 64 4d 4f 3e 71 cf 57 bf
       -0.55155885 0.51278746 0.20244366 -0.84300905
000020 3b 4d 6f 3f a1 67 37 3f 69 aa f1 3f 0c 14 fd be
       0.9347722 0.716425 1.888013 -0.49429357

running_mean f4 [12]
000000 33 b0 6c 3e 68 1b 9d bf 88 c8 ec bf 8e c5 5f 3f
       0.2311409 -1.2273989 -1.8498697 0.8741082
000010 89 49 86 3f c8 f1 94 bd 1f a3 1d 3d fb 21 14 3e
       1.0491191 -0.072726786 0.038485643 0.14466088
000020 86 9e d5 3f dc 52 45 3f c3 5a 36 3e e0 b4 0f 3f
       1.6689003 0.7707956 0.1780806 0.5613537

running_var f4 [12]
000000 58 db c0 41 cd 26 95 41 51 b4 c2 41 56 d7 35 41
       24.107101 18.643946 24.338045 11.365072
000010 50 c8 33 41 4b 92 dd 41 b3 fc 45 40 35 64 2d 41
       11.236404 27.696432 3.0935485 10.836965
000020 46 68 95 41 8e 5f 7d 40 6c d1 b4 3f dd c8 0f 40
       18.675915 3.9589572 1.412641 2.2466347

weight f4 [24, 12, 4, 4]
000000 a3 bc 96 bb 00 62 89 3b 8e 4d d1 bd f8 02 71 bd
       -0.004600124 0.0041925907 -0.102198705 -0.05884072
000010 f2 b7 91 be 57 d7 90 3e bc 46 24 3e 8f a3 83 3e
       -0.28460652 0.2828929 0.16042608 0.25710723
000020 06 c9 25 3d 53 e8 f4 bc f6 5d 6a 3e 19 d3 90 3c
       0.040474914 -0.029895937 0.22887406 0.017678784
000030 e7 66 8d bd 81 3c 88 ba ae f1 a4 be ff e3 4f be
       -0.06904393 -0.0010394008 -0.32215637 -0.20301817
000040 e1 2b 4d 3d fb a3 a7 3d 65 74 58 3e bd 81 1e 3c
       0.050090674 0.08185574 0.21138151 0.009674487
000050 db 55 4b 3e 3f 5d 73 3e 12 ae 2d 3f 8c 9c fe 3d
       0.1985697 0.2376604 0.67843735 0.12432203
000060 45 2d 08 3e 05 b6 f6 3d 1f 52 ea 3e 94 10 fe 3e
       0.13298519 0.12046436 0.45765778 0.49622023
000070 3f fa b1 3c d8 11 7d 3e f9 29 b9 3e c2 d2 a1 3d
       0.021725772 0.24713838 0.36164835 0.07901527
000080 27 cc a3 3a 58 45 3b be 26 c0 8c bd da ee 9c bd
       0.0012496755 -0.18288171 -0.06872587 -0.07662745
000090 d9 71 c1 bd 8a 09 d9 3d e5 68 36 3f ea 38 92 be
       -0.09445543 0.105975226 0.71253806 -0.28559047
0000a0 17 68 2f be 0a 23 c6 bd ff 77 0d 3f 76 76 eb be
       -0.17129551 -0.09674652 0.55261225 -0.45988816
0000b0 21 76 3d 3d 5d 73 de bd 49 a8 99 be 49 9d 5d 3c
       0.046255235 -0.108618475 -0.30011204 0.013526269
0000c0 6c 4d a0 3e 8e 05 39 bf d0 49 66 be 92 09 f7 be
       0.31309068 -0.722741 -0.22489095 -0.4824949
0000d0 81 4f ca be d0 c1 49 bc 5a a4 cf be 1c 95 ae bd
       -0.39513782 -0.012314275 -0.40555078 -0.08524534
0000e0 11 19 38 3e 81 53 49 3d 6d e2 d0 bd 9d f5 99 bc
       0.17978312 0.0491519 -0.10199437 -0.018793875
0000f0 2a 5b b0 3b 61 04 30 bf 34 5c e6 be 2a a9 9a be
       0.0053819614 -0.6875668 -0.4499222 -0.30207187
000100 d9 9e 5e bd a9 73 eb bc 54 e3 bb 3d 3a 43 22 3e
       -0.054350708 -0.028741674 0.09174219 0.15845957
000110 bf 0d 38 bc 63 5f fd 3d 2f 5a 53 be fd b3 37 3f
       -0.011233746 0.12371709 -0.20639871 0.71759015
000120 f9 2c 89 bd 3d e5 29 3f 1e 6d 12 be 52 49 cb 3e
       -0.06698031 0.66365415 -0.14299437 0.39704376
000130 58 68 04 3e 74 9e b1 bc 00 3b 7c be c7 55 32 3e
       0.12930429 -0.021682002 -0.24631882 0.17415534
000140 0c 68 e2 3c 9a 65 e0 bd 51 26 3b 3e 53 54 94 3d
       0.027637504 -0.10956879 0.18276335 0.07242646
000150 22 22 a6 3d 8c 31 34 be 67 ed 1d bf 12 e7 99 be
       0.08111979 -0.17597026 -0.6169037 -0.30059105
000160 dc 68 2e 3e 58 56 44 3d 9a 74 4e be ec f4 e6 bd
       0.17032188 0.047933906 -0.20161667 -0.11277184
000170 e4 9e 2d bc a4 5e 58 3d d2 65 e3 3e ec 95 18 3e
       -0.0105969645 0.05282463 0.4441362 0.1490094
000180 32 6e 90 be 68 00 5d be 9a 4d 0c 3e 6e 9a f1 bd
       -0.28209072 -0.21582186 0.13701478 -0.11797033
000190 05 52 50 3f 13 56 5f 3f 9c b4 5f 3e 2c 3a 78 3e
       0.8137515 0.87240714 0.21846241 0.24240941
0001a0 76 cd 28 bf 3d 9e 93 3e a8 32 b0 3e 42 5c 9b 3e
       -0.6593851 0.28831664 0.34413648 0.30343825
0001b0 00 71 cf 3d 4a e6 09 3e 8c 09 bb bd f9 97 c6 bd
       0.10128975 0.13466755 -0.0913268 -0.09696955
0001c0 9b 4d 5a bc 6e 4d 3e be 81 96 ec 3e 5a 8b b4 bd
       -0.013324167 -0.18584225 0.46208575 -0.08815642
0001d0 bc 9f 2d be c8 a2 5f 3f b8 0d 1d 3e 4a f2 68 3e
       -0.16955465 0.8735776 0.15337265 0.22748676
0001e0 71 2b a0 be 3f 6a 01 3e d1 13 4d be 76 b0 06 bd
       -0.31283143 0.12638186 -0.2002709 -0.03288313
0001f0 23 fe 9b 3c 90 46 c3 3b 1a b6 5a 3d 99 01 c6 bc
       0.01904208 0.0059593394 0.05339632 -0.024170684
000200 15 11 14 3e 1c a9 de 3d f2 ab 76 3d 64 25 87 3d
       0.14459641 0.10872099 0.060222574 0.065989286
000210 6f 64 c4 bd b0 c1 0b 3e 45 7f 3b bf 9d dd 04 3e
       -0.09589469 0.13648105 -0.7324107 0.12975164
000220 a8 e5 44 3e 10 5b c2 3b ea 5b 09 bf cf 11 00 3f
       0.19228232 0.0059312657 -0.53655875 0.50027174
000230 b2 be ea bc 57 03 c9 3c 89 a3 4f 3e 6a 9d cc bd
       -0.028655384 0.024537725 0.20277227 -0.09990962
000240 18 ea 90 bd d0 a7 ee bd 11 c8 03 3f 96 67 0f be
       -0.070759 -0.116531014 0.5147715 -0.14004359
000250 0f c1 8b 3e 72 d4 47 bd d1 d6 89 3d 88 85 7d bf
       0.2729573 -0.048786588 0.06730426 -0.9903188
000260 fc ab db be bc 74 de 3e 1e 4c 6f 3f ea ac 80 bd
       -0.4290465 0.43448436 0.9347552 -0.06282981
000270 29 14 88 3c 98 d8 5d 3e c6 89 c6 be c6 ad f9 3e
       0.016611176 0.21664655 -0.38776988 0.4876539
000280 68 8a 70 bd 7c 65 ea bc 58 7f 6e be 26 8a 09 bd
       -0.058725744 -0.028612845 -0.23290765 -0.033579014
000290 95 95 0d 3e c2 cb 03 bf 27 4a aa bf c0 16 ff 3d
       0.13826592 -0.51482785 -1.330388 0.12455511
0002a0 54 2f 8b be c7 8e 7c be da fa 2b 3e 58 9a 6e be
       -0.27184546 -0.2466384 0.16794911 -0.23301065
0002b0 19 b2 08 bd fb 7d 2e be ff 50 8b be 9c b4 2b be
       -0.033372972 -0.17040245 -0.27210233 -0.16768116
0002c0 7d 52 66 bd 1d 94 75 bd c5 a6 cb 3e 20 4d 97 3e
       -0.05623101 -0.059955705 0.39775673 0.2955103
0002d0 07 75 31 3d b8 36 40 bd 83 b3 0c 3e bf 74 14 3e
       0.043324497 -0.046927184 0.13740353 0.1449766
0002e0 c4 e0 3c be 04 b7 44 3d a7 35 26 3f 45 01 67 3f
       -0.18445116 0.0480261 0.64925617 0.9023631
0002f0 98 a8 86 bd 69 23 c6 bb 4d c5 12 3e 95 f8 e8 bd
       -0.065751255 -0.0060467017 0.14333077 -0.11375538
000300 3e ee a2 3c ae 2c ae bc 73 b2 87 3d 1e 35 5c bb
       0.019888993 -0.02126154 0.06625833 -0.0033600996
000310 7a 31 2e bd 20 d9 9b 3e 24 89 fb bd c4 64 aa 3c
       -0.042527653 0.3043909 -0.12282017 0.020800002
000320 2a b0 20 3e 69 4a 8f be a4 5a 86 3d 72 d6 b6 3d
       0.15692201 -0.27986458 0.06560257 0.08927621
000330 88 75 f1 bc 73 36 06 3e 35 ac 5f bc 8d 08 7f 3d
       -0.029474989 0.13106708 -0.013651897 0.062264014
000340 c5 f1 00 bd d0 b8 4f be 7b 1d 4a 3d b7 06 6d 3c
       -0.03148057 -0.20285344 0.04934452 0.014466933
000350 4f 74 c6 bc d9 8f 88 bd ad 6c c9 be 97 e3 18 bd
       -0.024225382 -0.06668062 -0.39340726 -0.03732642
000360 7e 02 42 be e1 95 63 3e 53 96 43 3e b7 2e 19 3d
       -0.18946263 0.22225143 0.19100313 0.037398066
000370 8e 8e 79 3c 76 51 02 be 0e 99 a9 bd 3c c1 b7 3d
       0.015231742 -0.12726387 -0.08281146 0.089724034
000380 09 a1 a5 3b 53 8d 43 bc 1e 1a 79 3e 91 2a ce bd
       0.0050545973 -0.01193555 0.24326369 -0.10066713
000390 2c 17 08 bd dd ed 94 3e c8 23 e9 be a8 b8 df 3d
       -0.033225223 0.29087725 -0.4553511 0.10923892
0003a0 10 28 1a 3e d4 1e c4 be 89 b8 5b 3f 50 2b d8 be
       0.15054345 -0.3830477 0.85828453 -0.42220545
0003b0 e4 78 96 bc c5 a6 08 be 74 f9 c1 3e 70 b0 a4 bd
       -0.018368192 -0.13344868 0.3788563 -0.08041465
0003c0 c5 64 85 bd dd 8e 27 3e b2 53 b4 be d4 6f cd bc
       -0.06513361 0.16363092 -0.35220104 -0.025077738
0003d0 ec 8e 89 3e 96 ad 80 be 65 39 97 3f 55 7e 14 3d
       0.26866853 -0.25132436 1.181439 0.036253292
0003e0 5f 4a 02 bd 2a ce ce be 5d 3b ae be 3b 48 6b 3b
       -0.031809207 -0.40391666 -0.34029666 0.0035901207
0003f0 9f fa cb bc 25 4e 98 3e 4d 56 ea 3c 8a c3 70 bd
       -0.024899779 0.2974712 0.028605605 -0.05878023

bias f4 [24]
000000 31 19 75 3a fd f2 0c 3c 1d 26 55 bc ed 98 1f bc
       0.0009349762 0.008602855 -0.013009575 -0.00974105
000010 a9 ea 8c bd 34 a2 bc bb fc a3 68 bb d6 d8 66 bd
       -0.068806954 -0.005756641 -0.0035498133 -0.056359135
000020 d2 63 a6 ba 99 63 e9 3c d1 58 65 bd 12 7e 67 3d
       -0.0012694544 0.028489875 -0.055992905 0.056516714
000030 09 7c 41 3d 71 f6 99 3c 59 3f 55 3d 5f 1f 20 bd
       0.04723743 0.01879427 0.052062366 -0.039092418
000040 a6 3e 78 bd 14 d2 5d 3d 51 38 31 bc 45 35 23 bc
       -0.06060662 0.054155424 -0.0108166495 -0.009961431
000050 ad f0 92 bd cc 63 39 bd 8b 8f 28 bd ca 50 95 3d
       -0.071748115 -0.04526119 -0.04115252 0.072908

weight f4 [24]
000000 10 34 06 3f 67 8e 4b 3e 84 35 31 3f 12 96 12 3f
       0.5242319 0.19878541 0.69222283 0.5726024
000010 21 9b a8 3e 00 49 33 3e d2 bd ce 3e b5 53 52 3f
       0.32930854 0.17508316 0.40379196 0.82158977
000020 c8 c3 e1 3e 54 c1 3a 3f 14 3f c4 3e 08 74 ae 3e
       0.44094682 0.72951245 0.38329375 0.340729
000030 a9 4b 30 3f 6b 96 0e 3f 69 a7 9f 3e a3 76 5d 3e
       0.6886545 0.5569827 0.3118241 0.21627288
000040 a3 0e 10 3f 14 d6 ee 3e 31 b9 22 3f 1b 02 ff 3e
       0.56272334 0.46647704 0.6356383 0.49806294
000050 d8 33 fe 3e 1c d0 06 3e 23 ff 39 3f bd 4c c1 3e
       0.4964893 0.13165325 0.7265493 0.3775386

bias f4 [24]
000000 a4 ff 2d bf fc 2a 85 3d 8b 19 f1 bf 02 77 c6 be
       -0.679682 0.06502339 -1.883592 -0.3876267
000010 11 28 be 3e d6 53 58 3f f9 54 ee 3e b2 5e 64 be
       0.37139943 0.84502923 0.46549204 -0.22301748
000020 cd 58 15 3f bb f1 b6 bf 41 2d c9 be 0b 2e 79 3f
       0.58338624 -1.429252 -0.39292338 0.9733588
000030 fa 79 46 3e b2 56 98 bf 18 b7 8c be c7 b8 23 bd
       0.19382468 -1.1901457 -0.2748344 -0.03997114
000040 b3 f9 31 bf aa 77 b1 3e c1 08 02 c0 22 8c 1d bf
       -0.69521636 0.3466161 -2.0317843 -0.6154195
000050 a5 cf 26 bf 91 42 37 3f 9a dd 00 c0 07 f6 82 3f
       -0.6516059 0.7158595 -2.0135255 1.0231332

running_mean f4 [24]
000000 52 59 2f c0 c9 e5 20 3e e5 05 ba bf 1c b2 8c c0
       -2.7398267 0.15712656 -1.4533049 -4.396742
000010 37 c8 1f c0 b9 0f be bf 62 b0 e3 c0 84 53 ee 3f
       -2.4965951 -1.4848548 -7.115281 1.8619237
000020 dd cd 8f 40 a5 3f 9e be 90 72 22 40 10 16 5d bf
       4.49388 -0.30907932 2.5382423 -0.8636179
000030 7a a9 b9 bf 0c 94 a5 be 5e 3d 00 40 2b 5a d9 bd
       -1.4504845 -0.32339513 2.0037456 -0.10612901
000040 71 77 b3 3f 02 1a b3 40 69 db 0a 3f 13 cb 9f 40
       1.4020826 5.596925 0.54241043 4.9935393
000050 1b 65 83 c0 d0 48 8a c0 67 5b 97 40 bf d1 c5 40
       -4.106092 -4.3213882 4.7299075 6.181854

running_var f4 [24]
000000 e0 06 67 40 31 48 18 3e a3 08 f9 3f 46 a0 82 40
       3.6097946 0.14871289 1.9455761 4.0820646
000010 2e c5 3d 3f 38 b2 a3 3e b2 b0 30 41 0a ee fd 40
       0.74129 0.31971908 11.0431385 7.9353075
000020 30 93 4f 40 42 2f 7e 40 da 5a 5d 3f 7f de 18 40
       3.2433586 3.9716344 0.86466753 2.38858
000030 2c b1 ce 40 eb c8 8f 3f 6f 6d 2e 40 03 cd 3a 3e
       6.4591274 1.123319 2.7254293 0.18242268
000040 43 27 f9 40 d6 c5 6d 40 26 84 a7 3f 79 e3 36 40
       7.7860427 3.7152 1.3087204 2.8576338
000050 0a c8 3e 40 a3 c8 83 3e 57 95 d6 40 d9 a3 11 40
       2.9809594 0.2573901 6.70573 2.2756255

weight f4 [48, 24, 4, 4]
000000 5e d2 55 3c db ed 37 3d d0 fe 83 3c c2 91 db 3c
       0.013050644 0.04490457 0.016112715 0.026802901
000010 58 2d 30 bd b6 73 0e be 6a a4 4f 3e 5f 04 1a bd
       -0.043011993 -0.13911328 0.20277563 -0.037601825
000020 35 c6 88 3d 9a a1 4f bc 25 08 10 3f 5c 08 92 bd
       0.0667843 -0.012672806 0.5626243 -0.07130501
000030 2d f1 95 3c 5a 76 b5 3d c6 41 a0 3d 28 8c 3c bd
       0.018303478 0.088604644 0.07825045 -0.0460321
000040 7f bc 28 bd 2e 7d d5 3d 35 9d 52 bd 45 cc 39 3d
       -0.04119539 0.10424267 -0.051419456 0.045360822
000050 3f d5 62 3e ce de 4d bf a9 c9 c1 3f 28 73 b9 3d
       0.2215166 -0.804181 1.5139667 0.090551674
000060 db d9 11 3e f7 40 17 3e 5b 9f 04 be ad eb b2 bd
       0.14243262 0.14770876 -0.12951414 -0.08736358
000070 5b 90 6e 3b 87 f4 cf 3c 8b 30 6b 3d 44 03 5a 3d
       0.003640196 0.025385154 0.05741934 0.05322577
000080 65 f1 83 bd e4 05 86 3b 78 3a 2b be 20 81 97 3d
       -0.06442527 0.0040900577 -0.16721523 0.073976755
000090 92 96 6f 3e bc f5 bf 3f 3b ec e7 bd 78 27 5a be
       0.23397282 1.4996867 -0.11324354 -0.21304119
0000a0 31 b6 f8 3d f6 5b 79 3f 08 3c 27 bf 95 40 27 3d
       0.12144125 0.97405946 -0.65325975 0.040833075
0000b0 5d 45 3f 3c 5b d3 93 bd 98 eb 17 be 6a 84 cb 3d
       0.011674252 -0.07218047 -0.14835966 0.09937365
0000c0 a6 a5 2a 3b df 8e b7 bd 6f 1b f5 bd 1d 37 2d 3b
       0.0026038676 -0.089627974 -0.11968123 0.0026430555
0000d0 89 90 ae bd 5e cd 36 3f 7f b7 64 3d cc 4d 34 bc
       -0.08523662 0.71407115 0.055839058 -0.011004876
0000e0 41 47 b1 bb 4e 03 37 bc 51 99 3d 3e 1c 40 14 bd
       -0.0054101055 -0.0111702215 0.18515517 -0.036193952
0000f0 d9 0e a4 3c de 3f 69 3d 15 da 97 3c df 51 3d 3d
       0.020026611 0.056945674 0.018536607 0.046220656
000100 56 c5 c0 3d 85 b4 95 3d c7 41 ff 3c dd 50 fa bc
       0.09412639 0.07309822 0.031159295 -0.030556137
000110 8a e3 ea bc 3b d3 8f bf 41 68 ce be 56 cc bd bd
       -0.028672952 -1.1236337 -0.40313914 -0.092674896
000120 b8 07 e4 3d 32 c5 85 3f 60 f4 bf 3e f2 a3 17 bc
       0.11134285 1.0450804 0.3749113 -0.009255396
000130 b1 71 28 bd a3 3d ec bd 6e 5e b5 3c 1d 4d 1f bc
       -0.04112405 -0.11535194 0.022139754 -0.009722975
000140 d7 67 f3 bd fa e8 ce 3c fd 09 31 be 76 25 8d bd
       -0.1188504 0.025257576 -0.17288966 -0.06891911
000150 f8 d3 30 3e 43 6a a7 be d9 52 0f bf 45 d2 97 be
       0.1726836 -0.3269826 -0.5598579 -0.2965261
000160 c9 a1 d0 bd bc 0d 1b bf 24 4c 52 be 39 9f 74 bc
       -0.10187108 -0.6056783 -0.20536858 -0.01493054
000170 82 34 e8 bc ea 8a 28 bc 7a 5b 31 3d e0 70 43 bc
       -0.02834535 -0.010287026 0.04330013 -0.011928767
000180 95 4c 2b bc d8 c0 28 bb 8a 13 b7 3d 3f 79 d4 3c
       -0.01045527 -0.002574971 0.08939274 0.02593672
000190 01 90 92 be 3d e2 7d bf e2 38 80 be ac 23 b1 bb
       -0.2862549 -0.9917334 -0.25043398 -0.0054058637
0001a0 3d 30 b9 be a0 e9 0c bf 87 c1 39 3e d0 77 a4 be
       -0.36169615 -0.55043983 0.18140231 -0.3212266
0001b0 28 b6 f6 bc 59 0c d4 bd b1 16 4b be 70 32 7a 3c
       -0.030116156 -0.10353918 -0.19832875 0.015270814
0001c0 e6 21 a4 3c c1 6a b9 3c 0c 62 41 bd 64 ae ef 3b
       0.020035695 0.022633912 -0.047212645 0.00731449
0001d0 fc ba bb 3d d8 d4 7f 3f 11 bf 26 3e de ff 0f be
       0.09166524 0.9993415 0.16283824 -0.1406245
0001e0 81 14 a6 bc 15 6a f6 3e d8 73 82 3e 9c 64 1f be
       -0.020273449 0.4812781 0.25479007 -0.15565723
0001f0 60 d6 b5 bd d9 89 42 be 52 0d fc bd db 41 b9 bd
       -0.088787794 -0.18997897 -0.12307228 -0.09045764
000200 9a e9 a8 bd ae 62 3a bc 27 e6 d6 bd c6 57 88 3d
       -0.08247681 -0.011376066 -0.10493117 0.066573665
000210 db d1 9e bc f5 f9 04 3f 80 16 10 bf 2b bf 57 3e
       -0.019387176 0.51943904 -0.5628433 0.21069019
000220 f3 f1 2f bd 49 08 6b 3e 97 ad 29 be 83 e9 5e bd
       -0.04295535 0.2295238 -0.16570126 -0.054421913
000230 1d 46 91 3c 6e 39 d3 3c 85 e2 01 3d 52 27 eb 3c
       0.017733628 0.02578422 0.031710166 0.028705273
000240 21 14 d7 bc 50 82 2f be 8d a1 36 be e9 ba 6d 3d
       -0.026254715 -0.17139554 -0.17835064 0.05803958
000250 be 69 9d bb 40 6a 6f 3f 30 e0 85 3d 13 ca 15 3d
       -0.004803865 0.935215 0.06536901 0.036569666
000260 24 e4 d7 3b 69 c3 08 3f 3c ef d4 3d 0d ad ae 3d
       0.006588476 0.5342317 0.10397193 0.085291006
000270 a5 2d 83 3c 74 0a 62 3d 0f 9a 69 3d 7d 7f 39 3c
       0.016012976 0.05518575 0.057031687 0.0113218995
000280 74 22 cf bd 52 fa 2f bd cc 55 25 bd 4d 5c f9 3c
       -0.10113993 -0.042963333 -0.040365025 0.03043952
000290 ed a8 cc 3c 3b 3c 90 3f ca fb c0 3e 0f d2 f0 3d
       0.024982894 1.1268381 0.376921 0.117588155
0002a0 7d 40 f2 bd a0 b0 76 bf d0 c7 ba be 1a 10 f9 3c
       -0.118287064 -0.9636326 -0.3648057 0.030403186
0002b0 b6 d4 f4 3c ec ba de 3d 00 e6 67 bb 7e d2 12 bb
       0.029886585 0.10875496 -0.0035384893 -0.0022403295
0002c0 97 18 06 3c 75 15 cf bd 03 82 dc bb d8 bf e2 bd
       0.008184574 -0.101115145 -0.006729366 -0.110717475
0002d0 10 9a 63 be 04 21 ad bd c7 df 81 be 73 bd ae bd
       -0.22226739 -0.08453563 -0.2536604 -0.08532228
0002e0 fe 74 ac bd d0 92 d5 bd 97 bd a5 bf f7 29 b5 3d
       -0.08420752 -0.10428393 -1.2948483 0.08845895
0002f0 d3 58 50 3c f3 99 2c bd 10 d5 7a bc e7 76 92 3d
       0.01271649 -0.042139005 -0.015309587 0.07151585
000300 08 ef dd bc df 52 40 3b c2 7a 7c 3d 77 86 f8 38
       -0.027091518 0.002934627 0.06164051 0.000118506076
000310 02 25 bf bd f3 d6 80 bf 10 fe 43 be ec 3e 2f 3e
       -0.093332306 -1.0065597 -0.19139886 0.17113847
000320 35 72 31 3d 43 d8 e8 be ce 30 54 be 56 c7 6f 3e
       0.043321807 -0.45477495 -0.20721743 0.23415884
000330 9c 84 c4 3d 86 f3 5d 3e b0 cd 25 3e 4d c0 a7 3d
       0.09595606 0.21674928 0.16191745 0.08190975
000340 ff e6 bb 3b 64 4a 3e 3d 8c 6d d3 3d 1d 49 02 bd
       0.005734324 0.046457663 0.10323629 -0.031808008
000350 08 16 7c bd 0a 5f f2 be 57 36 b6 bb 61 78 b5 bd
       -0.061544448 -0.47338134 -0.005560677 -0.08860851
000360 06 e3 aa 3c a6 34 a6 be 81 66 06 bd 96 e1 84 bc
       0.020860206 -0.32462043 -0.0328126 -0.016220849
000370 f0 6a e2 bc 54 9a 81 bd b3 1b 86 bd 69 b8 2a bd
       -0.027638882 -0.06328264 -0.06548252 -0.041679773
000380 9c 6d 07 bc 39 f5 66 bd 90 ad f5 3c bd 3d 25 3c
       -0.008265879 -0.056386206 0.029989988 0.01008552
000390 fd 4f 14 bc ce cf 15 3e a6 bd 10 3e 69 17 8f 3d
       -0.009052274 0.14630052 0.14134845 0.06986887
0003a0 28 ee 80 3d 01 fb 00 3d 72 ab 30 3e 3b 99 1e 3d
       0.06295425 0.031489376 0.17252901 0.03872035
0003b0 8f 38 3c 3c 2c 35 4f 3d e0 2a 4f 39 4f e2 a7 3c
       0.011488094 0.050587818 0.0001975703 0.020493655
0003c0 fb cf cf 3c e0 57 b4 bd 80 57 68 3d af 73 33 bd
       0.025367728 -0.08805823 0.05672407 -0.043811496
0003d0 44 3b 4d be 5b 07 41 3f d4 ba ae bf 73 7b af bd
       -0.2004214 0.7540185 -1.3650765 -0.08568468
0003e0 32 8f 04 be 47 6f 06 be 2d b6 e0 3d 1c 1f 95 3d
       -0.1294525 -0.13128386 0.10972247 0.07281324
0003f0 d9 41 f4 bb dd 81 e0 bc 7f ec 5b bd 87 e0 6b bd
       -0.0074541387 -0.027405674 -0.053692337 -0.057587173

bias f4 [48]
000000 6c 27 0b 3d 1e 3c b5 ba 50 f5 f6 bc 80 3a de 3b
       0.033973143 -0.001382712 -0.030146271 0.006781876
000010 6f 52 38 bc 77 d9 2b bd e7 98 e9 bc 41 52 b8 3a
       -0.011250122 -0.041955438 -0.028515292 0.00140626
000020 fe 26 ff 3c 68 43 57 bc 5e 38 95 bc 0a 89 b4 3c
       0.031146523 -0.0131386295 -0.018215355 0.022038002
000030 18 d9 89 bc a5 fa 33 3d ac 0b 12 bd ed 25 1e bc
       -0.016827151 0.043940205 -0.035655662 -0.009652597
000040 b9 70 40 bd 1b ef 98 bb 51 c0 94 bc 9b 16 0e 3d
       -0.0469825 -0.0046671755 -0.01815811 0.034689527
000050 a3 6c 4a bd eb 10 c3 3c 23 fa c9 bc 52 a4 95 bc
       -0.04942001 0.023811778 -0.024655407 -0.01826683
000060 43 31 1c bd fc 9f a3 bb af 4e 2f bc ee e2 2c 3d
       -0.038132917 -0.004993437 -0.010699912 0.042208605
000070 7a 3a 42 3d cc 90 29 bd 6f ac 74 bc 48 03 2a 3d
       0.04741905 -0.041397855 -0.0149336895 0.041507035
000080 86 69 c8 3c 4f 17 75 3a 59 55 7d 3c b3 fa 1d 3c
       0.02446438 0.00093494816 0.015462243 0.009642291
000090 ec 1c 1c 3c 82 5c 9d bb fa ab 4c bd 63 d0 93 bc
       0.00952838 -0.0048022876 -0.049968697 -0.018043702
0000a0 31 48 a0 3c e0 f2 bf 3c 81 64 86 3c 70 88 9c 3c
       0.019565674 0.023431242 0.016405346 0.019108027
0000b0 6c f2 e2 bc 67 ad 4f 3d d2 d5 ac 3c 72 c7 9d 3c
       -0.027703486 0.05070248 0.021098051 0.019260142

weight f4 [48]
000000 2a 98 52 3f 99 09 ae 3e cb 0a 03 3f f1 01 fb 3e
       0.82263434 0.33991697 0.51188344 0.4902492
000010 69 4d 38 3f 9d a6 0c 3f c8 57 3d 3f 73 6b d2 3e
       0.7199312 0.5494173 0.7396207 0.41097602
000020 8d b1 1b 3f 8c 27 88 3e d6 b5 9c 3e b9 75 65 3e
       0.60817796 0.26592672 0.3060748 0.22408189
000030 6c 5f 44 3e e1 ed 29 3f 43 f2 83 3f 26 88 77 3e
       0.19177026 0.663786 1.0308307 0.2417303
000040 81 0b 81 3f 4f 77 6b 3f 9a e7 98 3e 08 db 80 3e
       1.0081636 0.91978925 0.29864198 0.25167108
000050 c4 59 3e 3f ac 9c 79 3e bb df 43 3f 43 43 9d 3e
       0.7435572 0.24376172 0.7651326 0.3071538
000060 e2 01 5e 3f 91 bc 15 3f 75 6d 4d 3e 70 87 d7 3e
       0.8672162 0.58490855 0.20061286 0.42095518
000070 76 a4 8f 3e 02 eb 4a 3f ba 2a 58 3e dc c8 4c 3e
       0.2805516 0.79264843 0.21110049 0.19998497
000080 af bb 67 3e 80 9d 4e 3f 14 7a 6b 3f 53 4d b2 3e
       0.2263019 0.80709076 0.9198315 0.3482462
000090 a8 64 74 3f 94 e8 84 3f 2e 52 79 3e 84 ed c8 3e
       0.9546609 1.0383477 0.24347755 0.3924371
0000a0 ce e8 88 3e 2f 30 5e 3e c8 ce bc 3e d9 39 b7 3e
       0.26740116 0.21698068 0.36876512 0.35786322
0000b0 c1 cd 7e 3e f6 0e a1 3e 7c 74 33 3f 87 c8 61 3e
       0.24883176 0.31456727 0.70099616 0.22049151

bias f4 [48]
000000 d3 fc c7 3e 33 f9 a3 3f 51 58 f3 3d 37 e2 06 3f
       0.39060077 1.2810425 0.118820794 0.52688926
000010 85 77 40 bf 5b b5 b6 bd 50 e7 a5 be e1 e8 02 bf
       -0.7518237 -0.089213096 -0.3240304 -0.51136595
000020 32 03 b7 3e 1e 34 89 3f 39 3b 8b 3f 77 b2 53 3f
       0.35744625 1.071903 1.0877448 0.8269419
000030 ed 74 43 3f 59 35 ec bd 2f 59 a6 be 37 bc 6f 3f
       0.7635029 -0.11533613 -0.32489917 0.9364657
000040 a8 c7 7d bf c7 38 bc bf 6a af 81 3f b5 59 6e 3f
       -0.99132776 -1.4704827 1.0131657 0.9310563
000050 9e af fc 3e 85 2c 5e 3f 1b 75 fa be be cc cd 3e
       0.49352735 0.8678668 -0.4891747 0.40195268
000060 9a d3 48 3f 82 85 fa 3d 00 1c 47 3f e2 a2 b1 3f
       0.7844788 0.12232496 0.777771 1.3877833
000070 7a a3 78 3f 49 b6 57 bf 92 85 46 3f 21 c1 3f 3f
       0.97124445 -0.8426252 0.7754756 0.74904066
000080 af 2e 58 3f f8 3f 4b 3f ed be 4d bf 19 75 93 3d
       0.84446234 0.79394484 -0.80369455 0.07200069
000090 da b5 df bf 79 aa c9 3e 48 bf 62 3f 78 17 99 3f
       -1.7477372 0.39387873 0.8857312 1.1960287
0000a0 b7 ec 69 3f a0 ca 53 3f f0 34 9b 3f 5f f6 7e bd
       0.91376823 0.82731056 1.212553 -0.062246677
0000b0 d8 7c 6a 3f 5a 9f 91 3f 30 c7 c0 be 82 26 4a 3f
       0.91596746 1.1376755 -0.37651968 0.7896501

running_mean f4 [48]
000000 d7 db a5 c0 96 76 74 bf c2 3b cb 3f 4a 35 9c bf
       -5.183086 -0.9549345 1.5877612 -1.2203763
000010 81 86 95 3f 45 37 d5 bf 53 8a bf 40 dd 7d b8 40
       1.1681672 -1.6657492 5.9856353 5.765364
000020 06 3d 97 40 63 26 0a 3f 0b f0 5d 3f c5 3d 0d 40
       4.726199 0.53964823 0.866944 2.206895
000030 8d 7c 03 be ae 16 58 40 77 8b ad bf 15 77 3c 3e
       -0.12840481 3.3763843 -1.3558186 0.18404801
000040 1b 1e e8 c0 f0 fd d6 bd 9c 45 cc bf 04 ce 75 bf
       -7.253675 -0.104976535 -1.5958743 -0.9601748
000050 89 2b 5a 3f 93 a0 c6 3d 1f 38 72 bf 0f 3f b3 c0
       0.8522268 0.09698596 -0.94616884 -5.6014476
000060 68 18 c4 bf f5 c8 42 c0 26 c3 c8 3e 68 cb 5a 40
       -1.5319948 -3.0435154 0.39211386 3.418665
000070 bc 87 65 40 cb 87 2f 40 8d f7 5f bf cf 28 61 be
       3.5864096 2.7426631 -0.8748711 -0.21988223
000080 1b 86 23 c0 d8 33 ef 40 55 52 d5 3f 62 d7 30 c1
       -2.5550601 7.4750786 1.6665751 -11.052584
000090 92 0e 98 3d 59 96 ce 3f 93 5e 8e 3f 12 22 63 bf
       0.07424654 1.6139632 1.1122612 -0.8872386
0000a0 60 ba 13 c0 2f 82 2b c0 6f f6 1f 3e e6 54 35 41
       -2.3082504 -2.6798208 0.1562135 11.333227
0000b0 f3 dc 33 c0 03 b7 f5 bf f8 18 82 c0 ef 48 95 3f
       -2.8103607 -1.9196476 -4.065548 1.1662883

running_var f4 [48]
000000 5d 00 b3 40 dd 29 69 3f 53 d7 01 40 ef c2 08 40
       5.5937943 0.91079503 2.0287673 2.1368978
000010 ba 36 01 40 64 5e 04 40 f4 53 a5 40 74 f4 51 3f
       2.0189652 2.0682611 5.166498 0.8201363
000020 01 37 77 40 1c a0 de 3e 38 e8 5a 3f ab 0a 2b 3e
       3.8627322 0.4348153 0.8551059 0.16703288
000030 c3 e4 ce 3d 52 63 a9 3f aa e9 25 41 ec fb f5 3e
       0.101022266 1.3233435 10.369547 0.48043764
000040 fe f1 c4 40 3f 1e f2 3e 7c c5 06 3f 33 2c 82 3e
       6.15454 0.472887 0.5264509 0.25424346
000050 37 79 d5 40 08 92 93 3e 73 b5 bd 40 5a 22 4c 3f
       6.6710467 0.2882235 5.9283996 0.79739916
000060 ac f1 2b 41 ca 3b 84 3f 8f 25 c3 3d 22 18 dd 3f
       10.746502 1.0330746 0.09528648 1.727299
000070 bc bd 07 3f 51 ca ad 3f f4 5c dc 3d 8f 6d fa 3d
       0.53023887 1.3577367 0.10759917 0.12227928
000080 2c 20 ae 3e b7 46 f2 40 6b 57 cc 40 50 9a 1e 3f
       0.3400892 7.571132 6.385671 0.6195421
000090 ed cc bb 3f 88 2b 27 41 7e f9 79 3e 5c be 8e 3f
       1.4671913 10.448128 0.2441158 1.1151843
0000a0 4a 94 ce 3e f4 d4 f6 3e f1 4b 9a 3f fd 1d 0d 3f
       0.4034751 0.48209345 1.2054425 0.55123883
0000b0 de ea d1 3e 19 26 6b 3f 8c 32 6c 40 04 f9 20 3e
       0.40999502 0.9185501 3.6905851 0.15719992

weight f4 [48, 24, 4, 4]
000000 7b 12 9c 3d fe d6 d3 bc 14 0e c1 bd a4 7d c7 3a
       0.07620712 -0.025859352 -0.09426513 0.0015219939
000010 9b 87 28 3d 1e cb d1 be 70 39 e6 be 1c 48 1f be
       0.04114495 -0.4097528 -0.44965696 -0.15554851
000020 02 6b 06 3d d5 95 7d be 4e 4b 1b 3d 0c ef e2 bc
       0.032816894 -0.24764188 0.037913613 -0.027701877
000030 3f e3 ad bc c0 10 d0 bd f0 15 7a bd d1 32 38 bd
       -0.021226523 -0.10159445 -0.061056077 -0.044970337
000040 a2 f8 61 3c f7 37 b3 bd f0 d5 19 be f1 6d ff 3c
       0.013792189 -0.08750909 -0.15023017 0.031180354
000050 ab 8e 95 3e e9 65 74 bd 51 74 8d 3e 79 3d 86 be
       0.2921041 -0.0596675 0.27627805 -0.26218775
000060 82 0d 3c be 35 5a b7 be 18 a4 92 3e 7f 65 0a 3e
       -0.18364528 -0.3581101 0.2864082 0.1351528
000070 5a 03 95 3c 54 88 ba 3d cb e3 ff bd 0c eb ff 3c
       0.018190075 0.09108034 -0.1249462 0.031240009
000080 84 87 c8 bc 93 33 0f bd b3 a0 b1 bc 50 20 54 bc
       -0.024478681 -0.034961294 -0.021683073 -0.012947157
000090 de 36 9c 3d ef 58 08 3f 4e 71 93 3e 6c 05 db bd
       0.076276526 0.532607 0.28797382 -0.106943935
0000a0 31 30 c9 bd 45 fb ca 3d 65 24 a0 bc 20 10 9d bd
       -0.09823645 0.09911207 -0.019548604 -0.07669091
0000b0 5a 08 99 3a 14 a8 72 3d 13 8a df bd c5 a2 84 bd
       0.0011675463 0.059242323 -0.109150074 -0.06476358
0000c0 38 55 c6 bc 19 74 eb bc 5c 1a de bd b1 25 89 b9
       -0.024210557 -0.028741883 -0.108448714 -0.0002615876
0000d0 f7 47 59 3e 56 c8 12 3e fb d1 18 3d f5 53 b8 3c
       0.21218859 0.14334235 0.037309628 0.022500971
0000e0 8b bd a7 3d 3a 81 dc 3e a1 6d b2 3e 19 f0 84 3c
       0.08190449 0.43067342 0.34849265 0.016227769
0000f0 1e 1f 3d bd ec 04 ad bd 22 82 8c bd 5c 2e 68 be
       -0.046172254 -0.084482044 -0.06860758 -0.22673935
000100 da 38 3c bd 71 b2 4f bd 8e 09 39 3b dd 19 73 3d
       -0.045952655 -0.050707284 0.0028234455 0.059350837
000110 c9 c0 f8 be cc 07 93 bd 5f ee 0a 3d d7 0b ec 3d
       -0.48584583 -0.071792215 0.033918735 0.11525696
000120 2a 37 76 3c b0 44 a3 be e5 e8 a4 3d 3e 7b 56 be
       0.015027801 -0.31888342 0.080522336 -0.2094545
000130 43 82 2c be f1 48 1f 3b df a4 a8 3d 29 c1 b7 3d
       -0.16846566 0.002430495 0.08234572 0.08972389
000140 aa b5 a9 3d c2 a9 79 3e 86 8d 17 be 92 6e 8c 3d
       0.08286603 0.24381164 -0.1480008 0.06857027
000150 4b fc dd 3e c1 33 3e 3f 3c 1c 05 3c b7 96 c6 bd
       0.43356547 0.7429772 0.008124407 -0.09696715
000160 e4 c1 35 3e 26 a8 e0 3e b7 b1 42 be db 4c a4 bd
       0.17749745 0.43878287 -0.19013105 -0.080224715
000170 13 07 07 3c 44 87 32 be da a5 f7 bd c0 d2 95 bc
       0.008241433 -0.17434412 -0.120921806 -0.01828897
000180 6e c5 f7 bb 78 ab e1 bd 0e 2e 15 bd 23 aa 2d be
       -0.0075613772 -0.11019033 -0.036420874 -0.16959433
000190 ac 67 7f be d0 c1 b0 3e 0e e0 11 bf 93 8f b7 3b
       -0.24941891 0.34522867 -0.56982505 0.005601832
0001a0 35 cd 35 bd ff 4f 1b bd 4d c2 45 be 60 39 dd bd
       -0.044385154 -0.037918087 -0.19312401 -0.10801959
0001b0 e4 bb 9f bb e1 aa 24 3d 13 8a cf bc 53 d6 16 3d
       -0.004874693 0.040202025 -0.025334394 0.03682549
0001c0 e9 71 0f 3e d2 c1 7d 3d 3b 55 81 bd 8d 3b 64 bd
       0.14008297 0.06195242 -0.063150845 -0.055720855
0001d0 1a 3c 3d 3d 80 6f 47 3f 4b 8d fe bd 66 2d 22 3e
       0.046199895 0.7790451 -0.12429293 0.1583763
0001e0 04 61 40 bc 5e 71 ca bb 33 b2 49 3d 92 80 68 3c
       -0.01174188 -0.006178065 0.04924221 0.01419081
0001f0 1e d0 fa 3c 55 c0 bf 3d f0 b4 8b 3d 41 1e 79 3c
       0.030616816 0.09362856 0.068216205 0.015204967
000200 1f 41 32 3d 73 ea 0f be 54 e3 63 bd 3a 68 87 3d
       0.043519136 -0.14054279 -0.05563672 0.066116765
000210 c4 cd 8d 3e ff 6d 23 3f 82 74 51 3d d4 1b d9 bd
       0.2769605 0.63839716 0.0511365 -0.10601011
000220 4c 29 9a bb 65 3b 0c be 05 71 bd be 04 dc 1e be
       -0.00470463 -0.13694532 -0.3700029 -0.15513617
000230 a0 b7 32 be 60 f5 30 be 85 36 4a bd 66 78 e6 bc
       -0.1745286 -0.17281103 -0.0493684 -0.028133582
000240 f1 41 df 3c e8 0e 6d 3d b3 82 b4 bd 1a 1f 8e be
       0.027253123 0.057875544 -0.088139914 -0.27758104
000250 f3 6f c7 3d 39 3d 0d be 26 dc a0 3d 69 b6 cb 3c
       0.097381495 -0.13792886 0.0785449 0.024867253
000260 20 17 53 be 73 98 e3 3d 1d 36 56 be 78 50 90 be
       -0.2061429 0.11113062 -0.2091908 -0.28186393
000270 f4 83 80 bd 14 43 a0 bc 5a 28 01 be a3 ec d0 be
       -0.06275168 -0.019563235 -0.12613049 -0.4080554
000280 18 87 8d 3e 42 82 b1 3e 05 11 0d 3e 46 ff 91 bd
       0.2764213 0.3466969 0.13776024 -0.07128768
000290 4a 28 d8 3a c5 34 ab 3c 44 6c 25 3e 2e 84 95 bd
       0.0016491499 0.020899186 0.16154581 -0.07300602
0002a0 f7 79 32 3e c5 26 15 3f 10 a3 f6 3d d6 4b bd be
       0.17429338 0.5826228 0.120428205 -0.3697192
0002b0 e4 0a 92 bd 1d b3 82 3d 3c dc 62 3e dc b1 d0 3c
       -0.071309835 0.063818194 0.22154325 0.025475435
0002c0 07 c5 54 3e 0c d0 4d 3e 1f d5 a8 3c 87 e3 1c be
       0.20778285 0.20098895 0.020609437 -0.1532117
0002d0 75 12 09 3e 75 92 1b 3f 76 da 72 be ee 62 1c be
       0.13385947 0.6077035 -0.23716149 -0.15272114
0002e0 a9 c2 55 3e 4f d3 03 3f b7 0d 26 3d a2 0c 20 be
       0.20875038 0.51494306 0.040540423 -0.15629819
0002f0 ff 9a c5 bc 56 02 6e 3d 36 d2 63 bc 78 4a 0b bd
       -0.02412176 0.058107696 -0.013905099 -0.034006566
000300 fa 49 3c 3c 9f 9d 41 bb e4 96 03 3d 69 16 87 bb
       0.011492247 -0.0029543412 0.032126322 -0.0041225445
000310 00 96 e2 bc a7 23 c8 3e d8 e9 18 be 41 6c 0d 3d
       -0.027659416 0.390897 -0.14932954 0.034527067
000320 9c 45 29 3c 9e 6d 4f 3f 40 15 be 3d f3 8b f3 3c
       0.010331538 0.8102664 0.09281397 0.029729819
000330 57 38 2c bb cb 21 25 bc 7d 87 84 bd ee 08 0e 3d
       -0.0026278698 -0.010078858 -0.06471155 0.034676485
000340 19 f7 df 3c 5c 3d dd 3c c1 3b 5c 3d 53 8c 9f bd
       0.027339505 0.027006797 0.053767923 -0.077904366
000350 f5 54 ae be b1 e4 ca bd 65 a1 9f be b0 e3 e2 bd
       -0.34049192 -0.09906901 -0.31177822 -0.11078584
000360 6c a5 e2 bd 76 0d 9e be 14 38 40 3e 4a d5 cf 3d
       -0.11066708 -0.30869645 0.18771392 0.101481035
000370 f4 03 39 3e 3c ae ea 3d 4e 5f 1a be af 58 5f 3e
       0.18067914 0.11459014 -0.15075418 0.21811174
000380 b9 75 42 3e 83 2b 38 3e 73 b9 0c 3e 29 9f 7e bd
       0.1899022 0.17985348 0.13742618 -0.062163506
000390 98 b4 a7 bc 9f 4b c9 bc 46 ae bf be 87 f0 8d 3c
       -0.020471856 -0.024572192 -0.37437648 0.017326606
0003a0 c0 7d 67 3e 96 5a 00 3f cc be 46 3c fb 4f ba be
       0.22606564 0.50138223 0.01213045 -0.36389145
0003b0 84 58 fd 3c 48 e4 b7 3d f3 09 43 be af c2 c9 3c
       0.030925997 0.08979088 -0.19046764 0.024628965
0003c0 7c dc 55 be c9 7f 3d be dd eb 92 be f5 d1 a2 bc
       -0.2088489 -0.18505777 -0.28695574 -0.019875506
0003d0 2c a7 f6 bd 02 ad 16 bf 6d ec e6 bd b4 7b c0 bd
       -0.12043604 -0.5885774 -0.112755634 -0.093985945
0003e0 e5 5e a7 be 1e 58 9b be 39 73 05 bf d7 58 f2 bd
       -0.32689586 -0.30340666 -0.5212894 -0.11833351
0003f0 47 3d 32 3c 27 ba d8 bd 49 3a be bd 16 04 60 bd
       0.0108788675 -0.10582381 -0.09288461 -0.054691397

bias f4 [24]
000000 3d 4f 7c bc 29 a4 25 bd c9 dc ea bc 39 31 15 3d
       -0.015399751 -0.04043976 -0.028669732 0.036423896
000010 e2 6c 4f 3d d8 70 f5 3c 51 86 33 3d 11 22 18 bd
       0.050640948 0.029961035 0.043829266 -0.037141863
000020 fe 3a 40 3c 92 d9 4b 3d c1 a1 48 3d 4a 78 aa 3b
       0.011732815 0.049768038 0.048982386 0.005202328
000030 32 98 50 3d aa f0 8e 3c 78 8b c7 bc 48 ec 12 bd
       0.050926395 0.017448742 -0.024358496 -0.035869867
000040 d6 a8 4a bd 4e 22 91 3c e8 8f 71 3c b1 3c e5 3c
       -0.04947742 0.017716553 0.014743783 0.027983041
000050 0d cc d8 bc fb 23 07 3d 27 2f 3c 3d 64 14 0d bd
       -0.026464486 0.032993298 0.045943405 -0.034443274

weight f4 [24]
000000 fc 46 88 3f 0d e2 70 3f bc de 97 3f ca e9 86 3f
       1.0646663 0.94094926 1.1864848 1.0540097
000010 46 a8 1f 3f 29 c8 7d 3f 8c 64 88 3f f4 92 81 3f
       0.6236614 0.99133545 1.0655684 1.0122972
000020 e0 a5 9d 3f 09 27 3b 3f 93 24 57 3f 55 2d 76 3f
       1.2316246 0.7310644 0.8404018 0.9616292
000030 c7 d5 8f 3f 21 fb 8f 3f b8 ce 11 3f 3b 22 94 3f
       1.1237115 1.1248513 0.5695605 1.1572946
000040 d5 0f 81 3f c4 ee 44 3f 48 35 6d 3f 95 17 57 3f
       1.0082957 0.7692683 0.92659426 0.8402036
000050 d1 2f 1d 3f c7 38 7e 3f b6 54 96 3f 73 8c 79 3f
       0.6140109 0.99305385 1.1744602 0.97479934

bias f4 [24]
000000 dc ee 70 3d 0d 21 14 be d4 1d 2d bd b6 31 7d bd
       0.058821544 -0.14465733 -0.042264774 -0.061814986
000010 4e aa 8e be 28 b0 f4 be 4f 16 87 3c 94 b7 18 3d
       -0.27864307 -0.47790647 0.01649013 0.03728445
000020 69 0d 51 3e f8 e6 43 be 90 62 11 bf ea 9b 9c be
       0.20415272 -0.19131076 -0.5679102 -0.30587703
000030 41 69 8c 3d 2f 12 92 be 3e 34 5f be 4c ca a8 be
       0.06856013 -0.28529498 -0.21797273 -0.3296684
000040 d1 71 39 3d a7 1e bc be 93 71 17 be 9c 43 0e be
       0.04527456 -0.36742136 -0.14789419 -0.13892978
000050 0f 74 b9 be 8d 5a 3d bf 71 8a 6b 3e 64 d7 6e bd
       -0.36221358 -0.73966295 0.2300203 -0.05831088

running_mean f4 [24]
000000 83 e6 9f c0 b7 c5 82 c0 aa aa 37 be 8f 08 4c c0
       -4.9968886 -4.086635 -0.17936197 -3.1880224
000010 4b 55 2a c0 13 c3 22 c0 c5 4d b8 bf 29 73 63 bf
       -2.6614559 -2.5431564 -1.4398733 -0.88847595
000020 2a 1f a4 c0 bc 2c 81 c0 90 9e 86 c0 17 e0 11 c0
       -5.128804 -4.0367107 -4.206856 -2.2793024
000030 ec 99 23 c0 db a3 1d c0 a6 d5 0a c0 47 af 85 c0
       -2.5562696 -2.463126 -2.16929 -4.177646
000040 16 79 a1 be 22 92 96 c0 ef 5a 58 c0 7c 99 41 c0
       -0.31537694 -4.7053385 -3.3805501 -3.024993
000050 99 1c b2 c0 57 66 37 c0 88 c9 35 c0 4d 5e 04 bf
       -5.565991 -2.8656213 -2.8404255 -0.5170639

running_var f4 [24]
000000 2f f7 91 41 14 a0 9c 41 e8 b0 b2 41 cf 3e 62 41
       18.245695 19.578163 22.33638 14.140334
000010 c7 a9 30 41 4f 6c a5 41 ad c6 ea 41 1d b1 85 41
       11.04145 20.677885 29.34701 16.711481
000020 74 d1 30 42 54 9e 00 42 fc 83 31 41 75 06 b7 41
       44.204544 32.154617 11.094723 22.878153
000030 63 5e ab 41 2f a6 f8 41 c2 50 42 41 22 16 0a 42
       21.421087 31.081144 12.144716 34.521614
000040 5f cf 74 41 2e 48 4b 41 5f 83 1f 41 b8 22 93 41
       15.300628 12.705122 9.969573 18.391953
000050 e4 70 b9 41 84 05 8a 41 7a e4 a6 41 ab a1 48 41
       23.180122 17.252693 20.86156 12.53947

weight f4 [24, 12, 4, 4]
000000 e8 eb 0e 3d 1b 39 f7 3d 36 96 1a 3e cb 3f 82 3d
       0.034892946 0.12071439 0.15096363 0.06359824
000010 5d 86 07 3e f4 61 14 be 9c 1b b3 bd 80 b3 d3 bd
       0.1323485 -0.14490491 -0.087455004 -0.10336971
000020 fe 4a 9b 3d 5a 39 93 be eb a7 cb 3e 14 c3 ff bd
       0.07582663 -0.28754693 0.3977655 -0.1248838
000030 94 50 cf 3d d7 b0 2d be 25 96 c4 3a d3 d7 11 be
       0.10122791 -0.1696199 0.001499836 -0.14242487
000040 39 ed 17 bd 9b 1a 3b 3d bd 26 bc 3c d1 16 5e 3d
       -0.037091468 0.04567967 0.02296769 0.05422098
000050 02 0f 23 3e 3d 9d 58 be ba d1 34 be cd 27 db bc
       0.15923694 -0.21153732 -0.1765813 -0.026752377
000060 42 df b4 3e d5 ba 1a bf d2 6a 10 3f da a3 96 bd
       0.35326582 -0.60441333 0.56412995 -0.07355471
000070 27 bd dc 3d e0 50 60 bc c7 ab d3 bd 0f c1 7b bc
       0.107782654 -0.013691157 -0.10335498 -0.015365853
000080 db c3 3e be 97 d4 30 be 6f 6e d1 ba 84 0e 1c 3d
       -0.186294 -0.17268597 -0.0015978346 0.03809978
000090 f2 72 0b 3e ba 23 0c 3e 18 1c 47 3e 56 43 32 3e
       0.13618067 0.13685504 0.1944431 0.17408499
0000a0 0a ee ce 3c 17 a5 24 3e 82 2a 3f bd c1 c4 8d bd
       0.02525999 0.16078602 -0.046671398 -0.069222935
0000b0 de 71 10 be bf c4 2a be a2 0e 28 3d 8e 88 b8 bd
       -0.14105937 -0.16676615 0.04102958 -0.09010421
0000c0 40 2a 83 be 72 66 1f 3c 30 63 63 3d 18 b0 db be
       -0.25618172 0.009729015 0.055514514 -0.42907786
0000d0 90 75 4a 3d ce b5 eb 3e e1 31 36 3e 12 fa c9 3d
       0.049428523 0.46037143 0.17792465 0.0986215
0000e0 28 44 2c bd b2 28 bd 3d a3 4c bc 3e 9e f7 d2 3d
       -0.042057186 0.09236278 0.3677722 0.103011355
0000f0 c6 19 9c be af b5 24 be 3b 8f 77 3d a6 34 89 bd
       -0.30488414 -0.16084932 0.06043933 -0.06699495
000100 2d 10 dd bc 21 36 95 3d 16 4d f9 bc b8 f3 0c 3d
       -0.026985252 0.07285715 -0.030432265 0.034412116
000110 3c 35 62 be 47 7b 34 3e a0 90 f3 be af 80 75 3d
       -0.2209062 0.17625152 -0.47571278 0.059937175
000120 5d 75 a6 3c 9f b7 10 3e eb 0f cc bc 36 18 6a 3d
       0.020319635 0.14132546 -0.024909934 0.057151996
000130 36 97 01 bd 9e 98 64 bd cb 4a 5a be 83 3e ad 3b
       -0.031638347 -0.05580961 -0.21317594 0.005286993
000140 50 74 11 3c 04 28 ec bc a7 75 1c 3c 09 35 84 bd
       0.008877829 -0.028827675 0.009549535 -0.06455428
000150 84 07 1f be f4 17 ca 3d d6 16 87 be 07 8a c2 3c
       -0.1553021 0.0986785 -0.2638461 0.023747457
000160 8f e6 34 3c 60 21 5f be 36 97 bc 3c 4c e0 7e bd
       0.011041298 -0.21790075 0.023021322 -0.062225625
000170 46 8e 73 be 04 17 8d be c4 13 ee bd 65 0f 34 bd
       -0.23784742 -0.27556622 -0.11624864 -0.043959994
000180 ce f9 a3 bc 0f d1 36 be b5 e6 dd bc 5a ea 38 bd
       -0.020016577 -0.17853187 -0.027087549 -0.04514537
000190 88 d8 d7 3d 39 c0 3f 3f 95 9e 74 bd 8a 3d 83 3d
       0.10539347 0.74902683 -0.059721548 0.06408222
0001a0 0c bf 8a 3c 45 a3 08 bf 99 fb ec bc e7 d3 d7 bc
       0.016936801 -0.5337413 -0.028928565 -0.02634616
0001b0 94 cc 97 be 4a 3f 53 bd 1c 30 76 be 57 59 02 3d
       -0.29648268 -0.05157403 -0.2404179 0.031823482
0001c0 90 74 d3 3c 74 96 09 bd 37 39 87 3c 97 6b 97 be
       0.025812417 -0.03359075 0.016506774 -0.29574272
0001d0 8d fb 02 3e bb c7 f8 3e a5 0b 1a be 6f 7f 83 3c
       0.12791272 0.48589882 -0.15043505 0.016051976
0001e0 90 fe 2c bd 0c 07 4e be 12 f1 17 be 01 c2 76 3c
       -0.042234957 -0.20119876 -0.14838055 0.015060903
0001f0 68 f6 2f 3d 13 fc 9d bd f1 e9 8e 3d 39 03 2d bd
       0.0429596 -0.07714095 0.069782145 -0.0422394
000200 a7 29 c5 bd ff 8d d1 bd e0 f9 15 3c 1c 12 2c 3b
       -0.09627085 -0.10232162 0.009153813 0.0026255911
000210 b7 65 22 3d 5a 5f 06 3e 88 ba db bd 55 1e 8d 3a
       0.039647784 0.13122311 -0.107289374 0.0010766486
000220 ef 19 ca bd 25 4b cf be f7 19 55 bb 5b ae 08 be
       -0.09868228 -0.40487018 -0.0032516697 -0.13347761
000230 f2 c2 38 be 4f 0f 8a bd 63 27 4e 3d 0c ea 4f 3c
       -0.18043116 -0.06741201 0.05033053 0.0126900785
000240 6a 1f b9 bd 7a fc 0c be de 42 52 3d d5 7c 48 bb
       -0.09039195 -0.13768187 0.0513333 -0.0030591984
000250 f8 37 35 3e ab eb 79 bd e3 fe 60 bd 69 00 00 3d
       0.17697132 -0.061015766 -0.05493058 0.03125039
000260 f9 15 12 be 1f 59 d3 be 81 61 8d be cc e4 3d 3c
       -0.14266194 -0.41278931 -0.27613452 0.011590194
000270 a8 ce 01 3e c4 07 54 bd 98 6b 34 3e 40 de 00 bd
       0.1267649 -0.05176522 0.17619169 -0.031461954
000280 1b f3 9f be 54 e6 e0 bd 47 02 61 3b 71 68 a8 bd
       -0.31240162 -0.109814316 0.0034333633 -0.082230456
000290 f5 3d ae bc f7 28 97 3e 94 c5 d6 bd fc a2 b9 3d
       -0.021269778 0.2952344 -0.10486904 0.0906429
0002a0 76 3e 10 be eb 15 b8 3d 55 91 16 3e d9 81 d8 3c
       -0.14086327 0.089885555 0.14703877 0.026429104
0002b0 84 94 6a bd 18 84 c8 3d 7a 80 37 3e eb 9d 41 be
       -0.05727054 0.0979082 0.17920104 -0.18907897
0002c0 04 37 a3 bc e5 51 f1 bc 1a 5b cb bb 86 44 e9 39
       -0.019923694 -0.029457996 -0.0062059285 0.00044492277
0002d0 c5 4e 7b bd eb a3 af 3e 14 57 dd bd 35 d8 12 bd
       -0.061354417 0.34304747 -0.108076245 -0.035850722
0002e0 75 34 19 3e 63 2d 7e bf c4 d2 ee 3d 09 29 bf 3d
       0.14961417 -0.99288005 0.11661294 0.09333999
0002f0 b5 7f e1 bd 63 c9 00 be 57 d4 ce bd 63 f8 0f bd
       -0.11010686 -0.12576823 -0.10099094 -0.03514899
000300 80 ad b6 bd de cd ce bc 3f fa 3d be ec c9 86 bb
       -0.08919811 -0.02524465 -0.18552493 -0.0041134264
000310 a8 3a 76 be c6 a8 a6 bd 7b 31 7f be 94 2a c1 bd
       -0.24045813 -0.0813766 -0.24921219 -0.09431949
000320 8c c9 eb bd 1e 3a 00 be 93 d3 48 be 66 cf f5 3d
       -0.115130514 -0.1252217 -0.19611959 0.12002449
000330 c3 46 7b bd d7 77 59 be 9d 8f 6f be 59 8d 80 be
       -0.06134678 -0.21237122 -0.23394628 -0.2510784
000340 58 22 5a 3d a6 88 f5 bd 36 9e cd 3c 38 96 77 bd
       0.05325541 -0.11988954 0.025099855 -0.060445994
000350 07 3c 53 bd 84 98 15 3e 9b 24 cb 3d 00 34 45 bd
       -0.05157092 0.14608961 0.09919091 -0.048145294
000360 0a 99 c9 bd e0 91 72 3e 3b 7d 2f 3e 51 7c cf 3d
       -0.09843643 0.2368846 0.17137615 0.10131133
000370 b3 3e 5f 3a 8d fa 8b bd 34 bd 77 3d d9 e3 ee bd
       0.0008516118 -0.06834898 0.060483173 -0.11664552
000380 04 d8 bf 3d bf 19 16 3e 59 2a 16 3e 69 b7 1b 3d
       0.093673736 0.14658259 0.14664592 0.03801671
000390 70 d2 50 3c 8c 02 22 be 60 7f 58 3e 1b 59 0b 3d
       0.012745485 -0.15821284 0.2114234 0.034020524
0003a0 80 34 7f be 5b 0f fc bd 00 0b 38 3e 07 47 9b bb
       -0.24922371 -0.12307616 0.17972946 -0.0047386917
0003b0 fc 1b 99 bc 8e a5 db 3d 59 a0 47 3d 09 16 cb 3d
       -0.018690102 0.107249364 0.048736904 0.09916312
0003c0 ad 67 96 3e 5e 70 96 be 8f 1b 07 3e 0e 44 c7 be
       0.29375973 -0.29382604 0.13194107 -0.3891911
0003d0 74 fe 50 3c 7b e3 47 be a8 e3 90 3c 05 27 39 bd
       0.012755979 -0.1952037 0.01768668 -0.045203228
0003e0 dd c0 03 be 05 a1 6a 3d ab bd 0d 3e 51 d4 f6 bc
       -0.1286654 0.057282466 0.13841884 -0.030130537
0003f0 42 94 cb 3c 9f b3 9f bc fd 4c a8 bd ff 04 ba 3d
       0.024850968 -0.01949483 -0.08217809 0.09082984

bias f4 [12]
000000 35 6c 4c bd df 8a 3d 3d e9 8e 22 bd c0 91 93 bc
       -0.04990788 0.046275016 -0.03968707 -0.018013835
000010 69 c2 64 bd 83 e6 12 3d 76 be 56 3b 42 2b 0c bd
       -0.055849466 0.035864364 0.0032767332 -0.03422094
000020 6d 4f c6 bc 50 e5 d3 3c 9e 34 8f bd d4 70 4c 3d
       -0.024207795 0.02586618 -0.06992458 0.04991229

weight f4 [12]
000000 3a 94 8c 3f 22 5a 87 3f 60 bd 91 3f b4 37 58 3f
       1.0982735 1.0574381 1.1385918 0.84459996
000010 1f 18 74 3f e7 0f 6c 3f 52 34 83 3f dc 57 80 3f
       0.95349306 0.92211765 1.0250342 1.0026813
000020 a5 45 6e 3f 98 ff 6a 3f 34 c9 3a 3f 18 e2 87 3f
       0.9307502 0.91796255 0.7296326 1.0615873
