hw01/models/model.pth (torch, 7519 bytes, 3 tensors)

net.0.weight f4 [32, 45]
000000 c5 42 d7 bc 38 a8 dd bc 25 b1 10 bd a5 2f 12 bd
       -0.026276955 -0.027057752 -0.03532519 -0.03568997
000010 4f e4 11 bd 8d 7b 4d 38 af 61 8c b8 7e 48 b4 b7
       -0.035618123 4.8990874e-05 -6.693915e-05 -2.1491429e-05
000020 f2 c5 99 37 e6 3d 41 37 ae bd a3 36 42 d6 08 37
       1.8331197e-05 1.1518108e-05 4.87986e-06 8.1561175e-06
000030 6e 1c 21 37 b3 2d a6 37 a6 1d cb b7 78 48 02 37
       9.602967e-06 1.9810022e-05 -2.4213292e-05 7.765477e-06
000040 a9 f9 3a b8 a1 ff f8 b7 b0 f3 a2 37 8f 35 c8 38
       -4.457837e-05 -2.968294e-05 1.942538e-05 9.546719e-05
000050 56 25 df 37 9b 3c dc 37 84 a1 a0 b7 9e 09 02 38
       2.6601057e-05 2.6254265e-05 -1.9148698e-05 3.1003372e-05
000060 96 5b 38 b6 96 e4 9b b7 a4 f6 93 b7 05 d2 9f b7
       -2.7471447e-06 -1.8583884e-05 -1.7638617e-05 -1.9052075e-05
000070 62 9f 94 37 0c 24 3f 37 cf 46 de b6 c0 59 9a b6
       1.7717193e-05 1.139288e-05 -6.624359e-06 -4.600006e-06
000080 73 9b 17 b7 c8 e1 3c b8 ef 21 64 38 ad 78 47 38
       -9.036495e-06 -4.5032968e-05 5.439104e-05 4.7557685e-05
000090 41 10 60 37 f3 5f 97 b7 3c 01 c8 36 a0 47 36 38
       1.3355225e-05 -1.8045283e-05 5.960608e-06 4.3458887e-05
0000a0 94 ce 1f b8 fa ef 86 37 ef a8 ef 37 e1 a0 86 38
       -3.8100945e-05 1.6085793e-05 2.8569686e-05 6.419584e-05
0000b0 43 d9 49 b7 f0 12 cd 36 f4 05 a5 36 df 6b 36 b7
       -1.2031119e-05 6.1116807e-06 4.9180762e-06 -1.0873161e-05
0000c0 4d 19 92 b7 77 51 4f b7 ee c4 b7 b4 49 71 98 35
       -1.7416338e-05 -1.2357129e-05 -3.4229691e-07 1.1357853e-06
0000d0 8c f0 f4 b3 ce 54 4c 34 3b e9 13 35 f3 9b 04 35
       -1.14058906e-07 1.9029832e-07 5.510116e-07 4.940077e-07
0000e0 5a da 14 34 80 86 7b 34 7c 05 16 35 98 c9 3a b4
       1.386301e-07 2.3425127e-07 5.5887335e-07 -1.7395939e-07
0000f0 24 90 60 b4 72 ee 28 35 72 d0 8f b4 06 77 67 35
       -2.0914064e-07 6.293186e-07 -2.678749e-07 8.622741e-07
000100 40 9d a2 34 99 1f d4 34 93 b8 50 b4 2a 9f 19 35
       3.0289266e-07 3.9511067e-07 -1.9438657e-07 5.7228556e-07
000110 2b e9 d4 b4 20 eb 83 b4 3a 76 d7 34 91 e2 79 35
       -3.965773e-07 -2.4571727e-07 4.0132892e-07 9.3089426e-07
000120 20 3e fe 34 52 96 69 36 92 a9 c1 33 52 a5 55 b4
       4.735639e-07 3.4807204e-06 9.0181075e-08 -1.9897314e-07
000130 54 72 b4 b4 cc 81 db 33 c0 f0 28 b5 21 8e 17 b5
       -3.3610797e-07 1.0221592e-07 -6.2935214e-07 -5.645871e-07
000140 05 10 02 b5 c0 c2 1f b3 9e 31 74 35 66 b9 02 35
       -4.8452085e-07 -3.7197196e-08 9.0969286e-07 4.8698564e-07
000150 20 42 b3 34 6c 1f 85 b4 68 8e 0f b4 e4 3d 98 b4
       3.338946e-07 -2.4796043e-07 -1.336972e-07 -2.8357238e-07
000160 96 2f 17 b5 d0 9b 1b 35 12 b2 d5 b7 8a 83 d6 38
       -5.632113e-07 5.7968737e-07 -2.54745e-05 0.00010228816
000170 e1 fa 5e ba 43 c0 e0 b9 ec 2b 0e ba 70 e4 56 b8
       -0.0008506012 -0.00042867856 -0.0005423415 -5.1234325e-05
000180 6c 74 1b b8 76 60 18 39 12 3b 00 39 56 1a 46 b9
       -3.7063306e-05 0.00014531784 0.00012229037 -0.00018892562
000190 80 4b e4 36 9e 2a 0e 38 64 f3 9c b9 e2 49 2b b8
       6.803719e-06 3.389513e-05 -0.0002993598 -4.0838386e-05
0001a0 46 52 79 b7 17 a7 71 39 d7 39 9e b7 5e 0c 64 b6
       -1.4860712e-05 0.00023045797 -1.8862002e-05 -3.3981846e-06
0001b0 c8 44 39 39 ac 5d cf b9 51 8b 80 b9 9e 04 92 b8
       0.00017668598 -0.00039551908 -0.0002451786 -6.9626825e-05
0001c0 b5 1f 54 b9 f7 40 5d 39 70 71 46 39 e5 c6 5b b9
       -0.00020229707 0.00021100404 0.0001892501 -0.00020959562
0001d0 8f 99 46 39 b0 a3 24 b9 30 1b 08 b9 11 fa 23 b8
       0.00018939956 -0.00015701237 -0.00012980099 -3.909512e-05
0001e0 10 23 e3 b8 86 b8 33 38 aa d6 69 39 40 29 2b 39
       -0.000108307344 4.2848777e-05 0.0002230058 0.00016323198
0001f0 9f c5 8a 39 68 33 ae b9 05 01 66 b8 96 64 99 39
       0.0002646865 -0.00033226167 -5.4837223e-05 0.00029257376
000200 5c 12 70 39 b8 97 cb b8 b6 d4 c7 b8 44 ca 8c 39
       0.00022895023 -9.708054e-05 -9.52868e-05 0.0002685358
000210 2a 4c ee b8 03 47 29 39 cf 40 c4 39 14 e5 5e 3a
       -0.00011362911 0.0001614355 0.0003743232 0.0008502763
000220 88 7f 2c 3a ed 59 29 ba d8 b0 60 ba 74 f9 49 ba
       0.0006580283 -0.00064602384 -0.00085712736 -0.0007704713
000230 50 ea a2 b8 05 7a 88 39 b5 c7 5b 38 4c 0e 66 b9
       -7.768406e-05 0.00026030853 5.239966e-05 -0.00021939835
000240 36 46 09 b9 9f b8 3a b8 58 53 30 39 54 79 0a 38
       -0.00013091494 -4.4517798e-05 0.00016815716 3.301476e-05
000250 36 3c cd 38 bc a1 1b b9 d0 99 4f b7 b0 83 e2 b7
       9.786377e-05 -0.00014842203 -1.2373974e-05 -2.7002621e-05
000260 5d a1 0c b9 8e 15 9a b8 ff c2 6a 39 b2 0a 08 37
       -0.00013411553 -7.347307e-05 0.0002238862 8.108722e-06
000270 1f 0a 5b 38 dc 5d 09 b8 80 a9 78 35 e2 cb a8 b8
       5.2223095e-05 -3.275076e-05 9.2633854e-07 -8.0488404e-05
000280 33 eb 40 39 58 2a 1e b9 3d 66 d2 38 30 4c 5c 39
       0.00018398165 -0.00015083828 0.00010032624 0.00021009217
000290 56 58 1e 38 ee f0 54 38 ea 87 fc b8 5a c9 b1 b7
       3.7752405e-05 5.0769122e-05 -0.00012041612 -2.1193806e-05
0002a0 21 5a e1 b8 1c 25 78 b7 60 60 87 38 d4 a0 3c 38
       -0.00010745624 -1.4790592e-05 6.455253e-05 4.4972476e-05
0002b0 b6 4e ce b8 dd 36 b7 38 7a e0 7f 39 ce 38 14 38
       -9.8375065e-05 8.736339e-05 0.00024402319 3.5338853e-05
0002c0 83 10 68 38 86 ae a4 37 3d 6a a4 b8 c0 b7 11 37
       5.5328488e-05 1.9631592e-05 -7.839918e-05 8.685456e-06
0002d0 cb 2e 00 3a a8 79 96 39 ca f3 00 ba 04 81 7e ba
       0.0004889785 0.0002870087 -0.000491914 -0.0009708556
0002e0 7c 22 64 ba 73 47 84 39 20 5e 9e 38 cc 95 64 b9
       -0.00087026483 0.00025230236 7.551559e-05 -0.00021799578
0002f0 04 32 37 b9 20 b2 78 39 20 25 5e 37 6c 6c 46 b8
       -0.00017470872 0.0002371748 1.3240875e-05 -4.7307854e-05
000300 ee be a3 39 38 7d 19 b8 0e bc 75 38 66 d7 af b9
       0.00031232036 -3.659466e-05 5.858769e-05 -0.00033539085
000310 bc 28 08 38 b5 15 e8 36 30 78 8c b9 70 94 0d 3a
       3.2462864e-05 6.916666e-06 -0.00026792428 0.0005400842
000320 18 96 b0 39 d3 de b5 38 32 cf 5a 39 cf a6 a2 b9
       0.00033681164 8.672257e-05 0.00020867286 -0.0003102333
000330 18 26 99 b9 0e 5a c2 39 63 cf 93 b9 6c ae 3c 39
       -0.00029210816 0.0003706966 -0.0002819254 0.00017994054
000340 d4 95 cd 38 db 9f 59 38 c3 01 78 39 df c7 c2 b8
       9.8030694e-05 5.188571e-05 0.0002365178 -9.28787e-05
000350 0e 85 55 b9 11 da c4 b8 da 40 e7 b9 5f b0 0d 3a
       -0.0002036283 -9.386626e-05 -0.00044108072 0.00054050045
000360 27 19 fc 38 4a 36 ca b9 2c a8 b1 b9 68 3a 3b 39
       0.000120209814 -0.0003856889 -0.0003388537 0.00017855468
000370 b4 23 19 39 d4 3e cc b9 a8 58 2a 39 00 e1 c2 35
       0.00014604517 -0.00038956723 0.0001624549 1.451961e-06
000380 6a 20 bd b9 db 46 2a 3c 84 2d 25 3c 77 ab 07 3c
       -0.0003607304 0.01039287 0.010081653 0.0082806265
000390 a4 7f 07 3c 6c e8 07 3c 8f b2 a4 bb fc e4 96 3b
       0.008270178 0.00829516 -0.0050261687 0.004604934
0003a0 17 a4 7d 3b 8e 16 a7 bb 26 8c 31 3b b2 31 8c 3b
       0.0038702541 -0.0050991243 0.0027091592 0.004278385
0003b0 b8 44 3d bb 8a f3 7c 3a d0 53 11 b9 00 78 be 3b
       -0.002888007 0.0009649327 -0.000138595 0.005812645
0003c0 7e 8f a2 3a c0 cc 98 3b 5a 76 d1 3b c4 4f 34 3c
       0.0012402383 0.00466308 0.0063922824 0.011005346
0003d0 ba 77 29 3c e8 a1 8f 3b 94 7c b4 bb 43 28 60 3b
       0.010343486 0.0043833144 -0.005508015 0.0034203685
0003e0 54 78 6a 3b f4 26 ba 3a 32 06 46 3b 35 44 7b bb
       0.0035777288 0.0014202283 0.0030216095 -0.0038340215
0003f0 38 c8 d5 bb ef 5e 09 bc cf 15 c6 3a ad 82 18 bb
       -0.006524112 -0.00838445 0.0015112701 -0.0023271248

net.0.bias f4 [32]
000000 4d de bf bb 0e ac 92 b6 8e f3 de 38 cc dd b0 b8
       -0.0058553577 -4.371169e-06 0.000106311505 -8.433647e-05
000010 46 63 ec b8 85 bd 0e 3c 67 61 77 be 43 b0 51 be
       -0.00011271848 0.008712177 -0.2415825 -0.20477395
000020 23 7d 20 37 ff 16 2d b9 10 58 3b 39 64 cb 66 b1
       9.565879e-06 -0.00016507132 0.00017866516 -3.358502e-09
000030 f9 e6 b4 b4 72 5b ab bd 38 41 8f be b4 38 a9 b5
       -3.3695667e-07 -0.08367051 -0.27979445 -1.2607984e-06
000040 12 8e 6c 3c fa ab 91 b7 e6 53 15 3a 71 72 ba b2
       0.014438169 -1.736543e-05 0.0005696401 -2.1705292e-08
000050 23 c6 b6 bc bf 6e ff 38 8c ef 9f bd 1a 81 d1 36
       -0.022311276 0.000121799756 -0.07809362 6.243715e-06
000060 cc 6b 4d b9 81 38 f4 37 12 51 23 2e d4 2e e1 36
       -0.00019590481 2.9113378e-05 3.7133914e-11 6.710974e-06
000070 92 dd 69 39 f0 db db 32 20 fa 6c 34 9c fc 6c 34
       0.00022303153 2.5594971e-08 2.2070208e-07 2.2071112e-07

net.2.weight f4 [1, 32]
000000 d9 16 7e 3a 48 c6 9b 36 c2 ce 6f bb b9 e8 a9 3a
       0.00096927356 4.642443e-06 -0.0036591743 0.0012963034
000010 94 31 b3 3b 4e 81 1b 3c cc 76 f4 be f3 3f 11 3f
       0.0054685567 0.009491278 -0.47746885 0.56738204
000020 06 fa 3a 38 6b e8 53 b9 b3 b6 f1 bb 78 04 65 b2
       4.457871e-05 -0.0002020911 -0.007376516 -1.333057e-08
000030 e9 3a 99 34 23 cf a9 3e 66 fb 32 3f ca 4f ae 37
       2.8541334e-07 0.33165845 0.69914854 2.0779571e-05
000040 d6 b0 19 be 6c 85 0c b9 aa b6 30 bc b1 fb b1 33
       -0.15008864 -0.00013401144 -0.010785738 8.287987e-08
000050 b9 cb 6b 3c 10 e1 13 3b da 91 98 3e 78 3c ff b7
       0.014391833 0.0022564568 0.29798776 -3.0426527e-05
000060 8c f9 60 3c 42 88 fb b9 21 a8 00 30 93 c5 c4 b8
       0.013731372 -0.0004797597 4.6805054e-10 -9.3828094e-05
000070 15 bb 5c bc aa 17 d0 b3 99 73 76 b5 2f 6b 0c b6
       -0.013472338 -9.690059e-08 -9.181036e-07 -2.0924015e-06
